data.pth (torch, 17777 bytes, 6 tensors)

l1.weight f4 [7, 309]
000000 75 c7 10 3f f4 61 5a 3e 72 39 0a be 4d dc 82 bf
       0.5655435 0.21326429 -0.13498476 -1.022348
000010 23 24 2b 3f a9 c5 92 3f 9c 1f 24 40 7c 6d a3 bf
       0.66852015 1.1466571 2.5644293 -1.2767787
000020 72 b1 15 3f 1a 38 17 3f 0b ae 97 bc 16 0b 81 3f
       0.58473885 0.5906998 -0.018515607 1.0081508
000030 6b 79 a4 be 08 b4 20 bd d8 ab 74 3e c9 6a 14 40
       -0.32123885 -0.03923419 0.23893678 2.3190176
000040 25 25 2c 3e 79 ba e4 3e 53 7e 35 40 6d d3 e7 3f
       0.16811045 0.44673517 2.8358352 1.8111397
000050 59 25 13 40 af 01 93 3e 8c ab 05 3f ed 60 80 3f
       2.2991545 0.28712222 0.52214885 1.0029579
000060 ee a4 f5 3f a2 9d 0f 3f 4a 6d bd be 3a c0 aa 3f
       1.9190958 0.56099904 -0.36997443 1.3339913
000070 39 4f cb be 25 0b 29 3f 01 bf 22 40 45 43 3e bf
       -0.3970888 0.6603263 2.542908 -0.74321395
000080 b4 07 8c c0 36 e5 4f c0 c1 67 c6 3f 08 9b b4 3f
       -4.3759403 -3.248365 1.5500413 1.4109812
000090 cf 15 2e bd 7d 98 34 3f 29 42 9a 3f 43 71 61 3f
       -0.042501267 0.7054518 1.205144 0.8806345
0000a0 3d 6c c0 bf 85 80 79 3f 5a c0 b1 bf dc a5 f9 3f
       -1.5033032 0.9746173 -1.3886826 1.9503741
0000b0 50 58 02 be ec b9 2a 3f fa fc 2f 3f 51 e6 f6 bf
       -0.12729001 0.66689944 0.68745387 -1.9289037
0000c0 e7 9f 34 bf 94 2f cc bd 81 29 36 3f 7e eb 23 40
       -0.7055649 -0.09970012 0.7115708 2.5612483
0000d0 9a bc 3b bf 46 e2 3e c0 c8 a2 a2 3f c1 53 5b c0
       -0.7333466 -2.9825606 1.2705927 -3.426987
0000e0 f4 2f c0 3f fc d8 32 40 8b a3 3e bf ba 26 d1 be
       1.5014634 2.7944937 -0.74468297 -0.4084986
0000f0 22 50 52 bd df 4b c4 be 7c 39 22 c0 a1 f0 83 40
       -0.05134595 -0.38339135 -2.5347586 4.1231236
000100 ac f5 c3 3f 9b eb c9 be 9b 8d b6 bf 6a d7 3f 3f
       1.5309348 -0.39437565 -1.4261965 0.7493807
000110 6a 2a 25 bb 2a 54 ef 3f 98 b1 c4 be f6 46 3d 40
       -0.0025202283 1.869756 -0.38416743 2.957456
000120 ef 5a c5 3f b5 62 79 3f d1 17 15 40 2f c9 26 40
       1.5418376 0.9741624 2.3295786 2.6060293
000130 df 4f bc 3e 1f c3 7b 3f f8 e2 4e 3f 60 cf 6c 3f
       0.36779687 0.98344606 0.80815077 0.9250393
000140 81 f6 93 3c ba 0d 04 3d 98 21 09 40 91 e7 d0 be
       0.018061878 0.032239653 2.1426754 -0.4080167
000150 43 a4 0a 40 cc aa a6 bf 54 fa c3 3f a9 63 25 40
       2.1662757 -1.3020873 1.5310769 2.5842078
000160 88 94 1b 3f 4a 51 fc 3f 8f 74 f3 3f f0 f2 1e 3e
       0.60773516 1.9712307 1.9019946 0.15522361
000170 d8 85 32 40 bf af 0c 40 c2 dc 15 3e 77 34 04 40
       2.7894192 2.1982267 0.14634994 2.0657022
000180 c1 d2 a5 bf 5b b5 73 3f af ec 06 40 e0 d7 90 be
       -1.2954942 0.951986 2.108196 -0.282897
000190 ef 22 04 40 81 f4 b6 be 29 a0 6f 3f 54 5f e9 3b
       2.0646322 -0.35733417 0.9360376 0.0071219597
0001a0 ce eb 7b 3f 91 df ff 3e 8c 5c 33 40 5b ee 82 3f
       0.98406684 0.49975255 2.8025236 1.022899
0001b0 5f 69 fa 3f 95 72 c3 3f be 98 f5 bb e4 7f 2d 3f
       1.9563407 1.5269343 -0.007495015 0.6777327
0001c0 ed 6e 1f be 23 75 58 be a5 f8 c6 bd 96 a3 b6 bd
       -0.15569659 -0.21138434 -0.09715394 -0.0891792
0001d0 76 7a d0 be a8 aa 25 3f f6 5b d3 3f a7 e5 8e 3e
       -0.4071843 0.64713526 1.6512439 0.27909586
0001e0 1c 82 ff 3f 41 23 9a 3e a2 fe 8d 3e 26 3f ab bd
       1.9961581 0.30105022 0.27733332 -0.08361654
0001f0 48 25 7a bd 28 17 87 40 19 58 d2 3f 38 8e aa bd
       -0.06107071 4.2215767 1.6433135 -0.08327907
000200 c8 f7 a1 3f f4 4d 03 bf 9e 36 65 40 f9 4c 31 40
       1.2653742 -0.5129082 3.5814586 2.770323
000210 72 9c ba be 30 97 64 3e 60 b7 3a bf c5 8a f0 3e
       -0.36447483 0.22323298 -0.7293606 0.46980873
000220 4e 70 dc 3e ac 91 4c 3f 61 df b1 be a6 28 e7 3f
       0.43054432 0.7990978 -0.34740737 1.805928
000230 08 28 94 40 c0 18 ba 3f 82 86 94 3f 06 cf 50 3f
       4.6298866 1.4538803 1.1603549 0.8156589
000240 24 37 b5 be 63 4c 21 40 a0 be b1 bd db 67 b0 3f
       -0.3539363 2.5202873 -0.08678937 1.3781694
000250 73 d8 15 bf 6a 0b a9 be a0 09 75 be b8 d4 30 3f
       -0.585334 -0.3301652 -0.23929453 0.69074583
000260 27 85 6b be 86 52 51 3f a6 d5 bd be 93 29 3c bf
       -0.23000012 0.81766546 -0.37077063 -0.7350094
000270 58 c1 d5 3e 45 84 18 40 ce 1b b0 3f c2 38 06 40
       0.41749072 2.383073 1.3758485 2.0972142
000280 9e 13 93 3f 75 5e 16 bd 7d cd 1f be fb a9 0f 3f
       1.1490362 -0.036711175 -0.15605731 0.56118745
000290 3f bc 53 40 d2 11 f6 bf b5 64 f2 3f 2e 3a 50 40
       3.3083646 -1.9224188 1.8936983 3.253551
0002a0 e5 15 b1 be 24 a0 20 be 1b 5e b0 be 61 8d a5 3f
       -0.34587017 -0.15686089 -0.34446797 1.293377
0002b0 a4 43 a3 bf e1 75 65 3f a0 c8 85 3f dc f6 ca bd
       -1.2755017 0.89632994 1.0451851 -0.09910366
0002c0 5a 5e c3 3f af cc 17 40 2b 4f 3b bf 6b 47 fd 3f
       1.5263169 2.371868 -0.73167676 1.978742
0002d0 23 41 40 3f 1c 15 34 3f 7b 54 1c 40 12 5d e3 3d
       0.7509939 0.7034471 2.4426563 0.11101736
0002e0 43 bd 03 40 02 cf 6d 40 b9 73 15 3f 6c cb 96 40
       2.0584266 3.7157598 0.58379704 4.712332
0002f0 66 65 d9 be ea 65 1d be 21 9f e5 be 8e 78 73 c0
       -0.42460173 -0.15370908 -0.44847968 -3.804233
000300 21 f4 1e c0 1b 5b 3b bf 38 22 10 3f de a6 23 3f
       -2.4836504 -0.7318589 0.56302214 0.63926494
000310 0c 9e cb 3e e2 74 33 3f 19 0c 53 3f cf ea 2d be
       0.39769018 0.70100224 0.82440335 -0.16984104
000320 bf 0f 5e 40 4f 72 d6 3f f8 5e 09 3f 50 17 c8 3e
       3.469711 1.6753634 0.53660536 0.39080286
000330 a3 71 52 bf 95 ad b2 3f 19 59 2e 3f 54 18 d5 3f
       -0.82204646 1.3959223 0.681047 1.6648049
000340 bd c2 6b 40 9e 97 9a be b9 d4 d1 3f 09 03 43 be
       3.683761 -0.301938 1.6393043 -0.19044127
000350 a9 ee 3b bf e1 61 44 3f f1 64 c0 be 3a 38 f3 3e
       -0.7341104 0.7671185 -0.37577012 0.47503835
000360 60 66 ff bb a1 fc 02 40 73 cb 19 3f 1c de ad 3f
       -0.0077941865 2.0466692 0.60076064 1.3583407
000370 f0 a9 0a 40 d8 8a c4 3f f0 4e 3b bf 20 c2 80 3b
       2.1666222 1.5354872 -0.73167324 0.0039293915
000380 73 1d 90 be eb 25 8f 3e 38 7d 13 40 af 6c 4c 40
       -0.28147468 0.27958617 2.3045177 3.1941335
000390 0a 34 06 bf 71 20 e5 be 4b 3d e3 3f 2e 58 29 bf
       -0.52423155 -0.44751313 1.775308 -0.66150177
0003a0 d2 3b 84 3e e0 92 8d 3f f7 e3 17 40 78 a2 19 bf
       0.2582689 1.1060448 2.3732889 -0.6001353
0003b0 f8 05 2b 3f 22 2a 2d 3f f1 04 a4 3f e2 9d 91 bf
       0.6680598 0.67642415 1.2814008 -1.1376307
0003c0 dc 62 7c bd 20 88 9d 3e 9b 92 11 3f 0a c2 47 40
       -0.061617717 0.30767918 0.5686433 3.1212182
0003d0 ef d3 1c bf e7 14 fa be 96 4e ac bf 8a e7 ef be
       -0.61260885 -0.48844072 -1.3461483 -0.46856338
0003e0 51 47 eb 3c 39 99 a0 3e f3 fc 0f c0 d6 93 fc 3f
       0.02872053 0.313669 -2.2498138 1.9732616
0003f0 61 e4 09 3f 99 b1 46 c0 f0 dc 1c 3f 0e 22 e0 bf
       0.53864104 -3.1045897 0.61274624 -1.7510393

l1.bias f4 [7]
000000 4d af 29 3f 36 2a 4d 3f cf 7a cb 3f e3 f6 38 3f
       0.6628311 0.80142534 1.5896853 0.7225172
000010 ee 2e 48 3f 6f 20 a2 3f 92 2b 03 3f
       0.7819661 1.2666148 0.5123836

l2.weight f4 [7, 7]
000000 a9 1a 0c bf 8f 62 39 40 ff 97 95 bf a8 38 13 40
       -0.5472818 2.8966405 -1.168701 2.300333
000010 1d 95 89 bf 67 9b 84 40 6e 26 1b 3f 4c 2d 5c bf
       -1.0748631 4.14397 0.60605514 -0.8600662
000020 06 ff 10 40 5a 40 06 40 ac b0 48 40 49 c3 13 40
       2.2655654 2.0976777 3.1357832 2.3087943
000030 a0 34 3e c0 77 3c 30 40 29 7a 96 3f b2 22 d2 3f
       -2.971962 2.7536905 1.175603 1.6416838
000040 05 59 2e 40 f7 ba 3f bf f0 62 08 c0 57 6f c4 bf
       2.7241833 -0.7489466 -2.1310387 -1.5346478
000050 5a 91 00 c0 f6 1e 12 c0 58 4e 5c 3c 48 3a 0b 40
       -2.0088716 -2.2831397 0.013446413 2.1754322
000060 df 2a f0 3e b7 60 f3 bd 6e b8 8d 3f bd 99 0c c0
       0.46907708 -0.11883681 1.1071908 -2.1968834
000070 9b 7a dc 3f 29 d0 f6 bf 75 a9 fe 3f 6c 56 52 bf
       1.7224916 -1.9282275 1.9895464 -0.8216312
000080 1e d2 63 bf a2 a5 1f 3f 73 0d ce bc 92 55 a0 be
       -0.8899249 0.6236211 -0.025152897 -0.31315285
000090 ad 89 66 be 22 2e 99 be 18 4e dc 3d 00 2f 42 3c
       -0.22513457 -0.2991801 0.10757083 0.011852026
0000a0 12 45 94 be 56 4e 35 3e 32 88 36 40 c5 4c 14 3f
       -0.28958946 0.17705664 2.8520627 0.5792964
0000b0 04 f4 2a bd 6c 7a a3 bf 0f a5 29 40 d1 c9 5f 3f
       -0.041736618 -1.2771735 2.6506994 0.8741732
0000c0 49 0c 3d 3f
       0.7384687

l2.bias f4 [7]
000000 23 8f 75 3f 29 36 37 bf 81 64 a3 3f db 6a c3 3f
       0.95921534 -0.71567017 1.2765046 1.5266985
000010 c0 36 91 3f 3d 3d a6 be 56 ae 20 bc
       1.1344833 -0.32468596 -0.00980719

l3.weight f4 [34, 7]
000000 34 1a f6 3e 72 1a f1 bd 7e a1 3c bf 03 54 0a 40
       0.48066866 -0.11772622 -0.7368392 2.1613777
000010 0b a1 d4 c0 ae 86 2e 3e fc 57 b3 c0 a2 74 a3 c0
       -6.6446586 0.17043564 -5.6044903 -5.1079874
000020 85 d5 ec bf 4b 90 72 be 10 3f a6 ba d1 14 88 3e
       -1.8502661 -0.23687856 -0.0012683589 0.26578382
000030 80 bd 17 3b f9 87 e5 3f 8f 97 45 3d 13 d9 17 40
       0.0023153722 1.793212 0.04824024 2.3726242
000040 25 1b 71 c1 6e f8 a9 3e d7 d9 83 c0 fc cc f7 3d
       -15.069127 0.3319735 -4.120342 0.120996445
000050 e1 ec 92 be a7 5a 21 c0 06 72 75 be 91 3b d6 3f
       -0.2869635 -2.521158 -0.23969278 1.6736928
000060 70 5d 21 c0 91 4f bb bf 77 3e a4 3e 73 fb f3 be
       -2.521328 -1.4633657 0.32078907 -0.47652778
000070 7f 70 1c c0 08 61 a1 3f 51 3f 99 bd c8 6a f4 3d
       -2.4443662 1.2607737 -0.0748278 0.119344294
000080 ef 9b 43 bf 70 86 32 be de 7e f7 c0 ef c3 09 3f
       -0.7640981 -0.17434096 -7.7342367 0.53814596
000090 8c 10 6e 3c 40 92 7c c0 ed 07 4d 3f 90 37 0d c1
       0.014530312 -3.9464264 0.8009022 -8.826065
0000a0 bd d0 84 be 44 ab 9a 3f 56 88 f2 c0 f7 22 12 bf
       -0.25940505 1.2083516 -7.5791426 -0.570846
0000b0 4b 71 8c 3f c7 05 b8 c0 7c e1 aa 3f 6c f3 7a be
       1.0972074 -5.7507052 1.3350062 -0.2450692
0000c0 f8 3a 47 bf 4c 74 4d c0 bf 69 8d be e5 72 f3 3e
       -0.77824354 -3.2102232 -0.2761974 0.47548595
0000d0 37 06 a6 3f fb 4b c4 be d9 a5 6f be 1a 30 10 c0
       1.2970647 -0.38339218 -0.2340311 -2.252936
0000e0 28 ce 6b bf be a2 11 bf a6 c2 ad bf 25 d4 d6 3f
       -0.92111444 -0.5688895 -1.3575027 1.6783491
0000f0 f6 eb fc bd c0 4c 5b be 2c b8 6f 3f 7c 36 21 bf
       -0.123496935 -0.21415997 0.936404 -0.6297376
000100 4a 56 3d 40 75 e0 35 c1 38 c4 f0 c0 71 0f d3 bf
       2.9583917 -11.367299 -7.5239525 -1.6489087
000110 d9 55 90 be 85 8c 13 c0 58 ec 87 3f 30 89 91 be
       -0.28190497 -2.3054516 1.0619001 -0.28424978
000120 37 87 bb c0 f6 fa cb c0 88 6a 93 c0 cb 8a b0 be
       -5.8602557 -6.374385 -4.6067543 -0.3448089
000130 9a 98 0c 40 dd bb 09 3f 71 3c 02 c0 e3 2f b2 3e
       2.196814 0.5380228 -2.034939 0.3480216
000140 10 60 34 3d 38 26 9f bf 78 16 37 bd e2 0e 72 bf
       0.044036925 -1.2433538 -0.044699162 -0.9455396
000150 3e fe 7b be 5c d8 ce 3e 6e ec 8b bf a4 f6 ae bf
       -0.24608704 0.40399444 -1.0931528 -1.3669019
000160 cf ea ae bf 01 c2 8d 3e 15 3f 9e 3e dd 34 f9 be
       -1.3665408 0.27687076 0.30907503 -0.48673144
000170 ac fb e2 be c1 40 a7 bd e8 9b 53 c0 67 d3 0f 40
       -0.44332635 -0.08166648 -3.3063908 2.247278
000180 d2 57 6e be a1 74 3b c0 b0 87 e6 be 3e 53 b6 bc
       -0.23275688 -2.9289935 -0.45025396 -0.02225649
000190 87 82 ee 3f c1 12 09 3f f0 df 31 c0 90 f7 35 3d
       1.8633584 0.5354424 -2.779293 0.044425547
0001a0 f8 7c de c0 91 b9 df 3f 96 98 f1 3f 9e 5a 21 c1
       -6.952755 1.7478505 1.887469 -10.084623
0001b0 a9 78 a8 c0 46 92 ad c0 c4 2f c1 be d3 89 a5 be
       -5.264729 -5.4241056 -0.37731755 -0.32331714
0001c0 3d f4 ac 3e 3f 2d b1 bf b6 22 1a c0 cc 82 8b 3f
       0.3378009 -1.3841933 -2.4083686 1.0899291
0001d0 80 f1 1a 3d cc ef 92 3d 98 f4 be bf 7c 0e af be
       0.03782797 0.07174644 -1.4918394 -0.34190738
0001e0 e5 74 01 3f cd 63 73 3d 98 6c 9f bd 91 4c f2 bf
       0.5056899 0.05942135 -0.077843845 -1.8929616
0001f0 42 c1 2e be 87 4b 5b bf a9 a5 37 3e 96 34 29 bf
       -0.1706591 -0.8566212 0.17934288 -0.66095865
000200 fd ae 6f bf 49 79 46 c1 1a e7 76 bf 67 40 a7 3e
       -0.93626386 -12.404611 -0.96446383 0.32666323
000210 c1 97 9b 3f 81 21 d6 bf 7d 92 e4 bf 96 73 c3 3f
       1.2155687 -1.6728975 -1.7857205 1.5269649
000220 ce 57 16 c1 89 c6 75 3e 63 99 a6 3e 14 cb a6 3e
       -9.396437 0.24001516 0.325389 0.3257681
000230 5e e9 b3 be 01 c0 47 3f 40 e3 05 bf 82 26 17 3e
       -0.35138983 0.7802735 -0.5229988 0.14760783
000240 58 a5 64 c0 eb 36 c0 be 57 09 6a bf be 83 19 c0
       -3.5725918 -0.375419 -0.914205 -2.398666
000250 2c ca 42 c0 b2 61 fb bd ae b1 ae 3f 2b 91 d5 3f
       -3.0435896 -0.12274493 1.3647974 1.6684927
000260 9f 1b b5 be f5 71 13 bf 42 8b 41 c0 1d c0 bf c0
       -0.35372636 -0.5759576 -3.0241246 -5.9922013
000270 a6 40 08 40 4c 0c 71 c0 39 7a ff 3f 36 3a 4d 3e
       2.1289458 -3.7663755 1.9959174 0.20041737
000280 7e c8 2e 3e 81 fe 5b 3f 7c ab dd 3f 80 43 55 c1
       0.17068669 0.8593522 1.7317958 -13.3289795
000290 2a e7 84 bd bb 7d 09 bf 87 10 bf 3e 6a 0e fa be
       -0.064894035 -0.53707474 0.37317297 -0.48839122
0002a0 8c c8 94 be 27 1a 54 3f 75 3e 39 bf c6 54 fd bf
       -0.29059255 0.82852405 -0.72360927 -1.9791496
0002b0 f4 13 27 c0 94 d9 b8 3d ad 3e ec bd 24 32 dc bf
       -2.6105928 0.09025875 -0.11535392 -1.7202802
0002c0 5f 5b fa c0 33 05 25 40 f4 11 29 40 1c 7a 23 3f
       -7.8236537 2.5784423 2.6417208 0.638582
0002d0 80 fd 05 3d 4f 29 8f c0 f5 7c 60 bf c9 e6 b4 c0
       0.03271246 -4.4737926 -0.8769067 -5.653172
0002e0 e3 dd a7 c0 97 1b 58 bf ac 0d 81 bf 95 d0 a7 be
       -5.245836 -0.844171 -1.0082297 -0.32776323
0002f0 31 7f 3f 40 5d 48 80 bd ed 18 ce bf 4b 74 80 3e
       2.9921381 -0.06263802 -1.6101357 0.25088724
000300 78 5d 24 bf a2 b2 19 be 20 06 dd 3c 52 57 59 3e
       -0.6420512 -0.1500955 0.02698046 0.21224716
000310 b1 ae bc bf 56 b7 ac c0 d9 38 07 c0 41 45 dc c0
       -1.4740812 -5.39738 -2.1128447 -6.883454
000320 76 59 11 40 54 e3 8a be a6 7a d8 3f 91 17 0f c0
       2.2710853 -0.27126563 1.6912429 -2.2358134
000330 c9 d9 eb c0 9a bd c2 bf c4 5a d8 3f 8b ca fa 3f
       -7.370335 -1.5214112 1.69027 1.9593061
000340 85 49 95 3e 6d b2 a1 3f 48 4d 70 bf 90 75 7d bf
       0.29157653 1.2632576 -0.9386792 -0.9900751
000350 8e ea c3 c0 13 94 dd c0 e7 7a 33 3f c6 72 0c 3e
       -6.122382 -6.9243255 0.7010941 0.13715658
000360 f6 56 ec 3f 5b 41 32 c0 b4 9c 93 bf de 88 af bc
       1.8464038 -2.785239 -1.1532197 -0.021427568
000370 ba f1 02 40 ec c4 bb 3f 7c e9 25 be a3 6c 0a c1
       2.0460038 1.4669471 -0.16202348 -8.651523
000380 2e 4d 0b c1 fd fa 0f c0 9c c7 de 3f e1 fe c3 be
       -8.706343 -2.249694 1.7404666 -0.38280395
000390 3b 4e d2 3f aa e5 68 be 3b f7 21 c0 90 22 da 3f
       1.6430124 -0.2274386 -2.5307148 1.7041798
0003a0 ba e3 4b 3f 48 36 21 c0 cc a3 e3 c0 a6 da dd 3c
       0.7964436 -2.518938 -7.1137447 0.027081799
0003b0 64 3d d3 3d 11 e1 59 c0
       0.10314444 -3.404362

l3.bias f4 [34]
000000 15 95 a0 bf 45 6c 05 bf 4c 68 e8 bf d0 79 fe bf
       -1.2545496 -0.5211833 -1.8156829 -1.9880924
000010 9b f8 33 bf 07 11 49 3e d0 52 ff 3e f5 f2 e7 be
       -0.70301217 0.19635402 0.49867868 -0.4530255
000020 c5 2c 08 bf 13 ef 12 3f 54 2d cc be ad 04 94 3d
       -0.5319331 0.5739605 -0.39878333 0.07227454
000030 14 c1 cf bd d9 96 5c bf cd 60 21 c0 62 26 24 c0
       -0.101442486 -0.86167675 -2.5215333 -2.5648427
000040 5c 81 30 3e 8d 93 70 bd 19 ec 68 c0 cb 1f fd be
       0.17236847 -0.058734465 -3.6394103 -0.4943832
000050 e7 5b 56 3e c8 b5 11 c0 70 78 62 3f 0f a4 15 3f
       0.20933495 -2.27672 0.88465023 0.5845346
000060 e5 37 0c bf 31 16 42 3f 7e af 5e bf 21 40 40 be
       -0.5477279 0.7581511 -0.8698653 -0.18774463
000070 60 64 26 bf 42 0c 82 c0 50 f8 66 3e 38 26 03 3e
       -0.6499691 -4.0639963 0.22555661 0.12807548
000080 e4 43 4f 3e b8 a7 a8 bf
       0.20240742 -1.3176184
